…
2020-01-16 20:09:32.768893: I tensorflow/compiler/xla/service/service.cc:168] XLA service 0x7fc6def7b2c0 executing computations on platform Host. Devices:
2020-01-16 20:09:32.768919: I tensorflow/compiler/xla/service/service.cc:175]   StreamExecutor device (0): Host, Default Version
Model: "model_1"
__________________________________________________________________________________________________
Layer (type)                    Output Shape         Param #     Connected to
==================================================================================================
input_1 (InputLayer)            (None, 26)           0
__________________________________________________________________________________________________
embedding_1 (Embedding)         (None, 26, 200)      20000000    input_1[0][0]
__________________________________________________________________________________________________
dropout_1 (Dropout)             (None, 26, 200)      0           embedding_1[0][0]
__________________________________________________________________________________________________
conv1d_1 (Conv1D)               (None, 25, 1)        401         dropout_1[0][0]
__________________________________________________________________________________________________
conv1d_2 (Conv1D)               (None, 25, 1)        401         dropout_1[0][0]
__________________________________________________________________________________________________
conv1d_3 (Conv1D)               (None, 25, 1)        401         dropout_1[0][0]
__________________________________________________________________________________________________
conv1d_4 (Conv1D)               (None, 25, 1)        401         dropout_1[0][0]
__________________________________________________________________________________________________
conv1d_5 (Conv1D)               (None, 25, 1)        401         dropout_1[0][0]
__________________________________________________________________________________________________
conv1d_6 (Conv1D)               (None, 25, 1)        401         dropout_1[0][0]
__________________________________________________________________________________________________
conv1d_7 (Conv1D)               (None, 25, 1)        401         dropout_1[0][0]
__________________________________________________________________________________________________
conv1d_8 (Conv1D)               (None, 25, 1)        401         dropout_1[0][0]
__________________________________________________________________________________________________
conv1d_9 (Conv1D)               (None, 25, 1)        401         dropout_1[0][0]
__________________________________________________________________________________________________
conv1d_10 (Conv1D)              (None, 25, 1)        401         dropout_1[0][0]
__________________________________________________________________________________________________
conv1d_11 (Conv1D)              (None, 24, 1)        601         dropout_1[0][0]
__________________________________________________________________________________________________
conv1d_12 (Conv1D)              (None, 24, 1)        601         dropout_1[0][0]
__________________________________________________________________________________________________
conv1d_13 (Conv1D)              (None, 24, 1)        601         dropout_1[0][0]
__________________________________________________________________________________________________
conv1d_14 (Conv1D)              (None, 24, 1)        601         dropout_1[0][0]
__________________________________________________________________________________________________
conv1d_15 (Conv1D)              (None, 24, 1)        601         dropout_1[0][0]
__________________________________________________________________________________________________
conv1d_16 (Conv1D)              (None, 24, 1)        601         dropout_1[0][0]
__________________________________________________________________________________________________
conv1d_17 (Conv1D)              (None, 24, 1)        601         dropout_1[0][0]
__________________________________________________________________________________________________
conv1d_18 (Conv1D)              (None, 24, 1)        601         dropout_1[0][0]
__________________________________________________________________________________________________
conv1d_19 (Conv1D)              (None, 24, 1)        601         dropout_1[0][0]
__________________________________________________________________________________________________
conv1d_20 (Conv1D)              (None, 24, 1)        601         dropout_1[0][0]
__________________________________________________________________________________________________
conv1d_21 (Conv1D)              (None, 23, 1)        801         dropout_1[0][0]
__________________________________________________________________________________________________
conv1d_22 (Conv1D)              (None, 23, 1)        801         dropout_1[0][0]
__________________________________________________________________________________________________
conv1d_23 (Conv1D)              (None, 23, 1)        801         dropout_1[0][0]
__________________________________________________________________________________________________
conv1d_24 (Conv1D)              (None, 23, 1)        801         dropout_1[0][0]
__________________________________________________________________________________________________
conv1d_25 (Conv1D)              (None, 23, 1)        801         dropout_1[0][0]
__________________________________________________________________________________________________
conv1d_26 (Conv1D)              (None, 23, 1)        801         dropout_1[0][0]
__________________________________________________________________________________________________
conv1d_27 (Conv1D)              (None, 23, 1)        801         dropout_1[0][0]
__________________________________________________________________________________________________
conv1d_28 (Conv1D)              (None, 23, 1)        801         dropout_1[0][0]
__________________________________________________________________________________________________
conv1d_29 (Conv1D)              (None, 23, 1)        801         dropout_1[0][0]
__________________________________________________________________________________________________
conv1d_30 (Conv1D)              (None, 23, 1)        801         dropout_1[0][0]
__________________________________________________________________________________________________
conv1d_31 (Conv1D)              (None, 22, 1)        1001        dropout_1[0][0]
__________________________________________________________________________________________________
conv1d_32 (Conv1D)              (None, 22, 1)        1001        dropout_1[0][0]
__________________________________________________________________________________________________
conv1d_33 (Conv1D)              (None, 22, 1)        1001        dropout_1[0][0]
__________________________________________________________________________________________________
conv1d_34 (Conv1D)              (None, 22, 1)        1001        dropout_1[0][0]
__________________________________________________________________________________________________
conv1d_35 (Conv1D)              (None, 22, 1)        1001        dropout_1[0][0]
__________________________________________________________________________________________________
conv1d_36 (Conv1D)              (None, 22, 1)        1001        dropout_1[0][0]
__________________________________________________________________________________________________
conv1d_37 (Conv1D)              (None, 22, 1)        1001        dropout_1[0][0]
__________________________________________________________________________________________________
conv1d_38 (Conv1D)              (None, 22, 1)        1001        dropout_1[0][0]
__________________________________________________________________________________________________
conv1d_39 (Conv1D)              (None, 22, 1)        1001        dropout_1[0][0]
__________________________________________________________________________________________________
conv1d_40 (Conv1D)              (None, 22, 1)        1001        dropout_1[0][0]
__________________________________________________________________________________________________
global_max_pooling1d_1 (GlobalM (None, 1)            0           conv1d_1[0][0]
__________________________________________________________________________________________________
global_max_pooling1d_2 (GlobalM (None, 1)            0           conv1d_2[0][0]
__________________________________________________________________________________________________
global_max_pooling1d_3 (GlobalM (None, 1)            0           conv1d_3[0][0]
__________________________________________________________________________________________________
global_max_pooling1d_4 (GlobalM (None, 1)            0           conv1d_4[0][0]
__________________________________________________________________________________________________
global_max_pooling1d_5 (GlobalM (None, 1)            0           conv1d_5[0][0]
__________________________________________________________________________________________________
global_max_pooling1d_6 (GlobalM (None, 1)            0           conv1d_6[0][0]
__________________________________________________________________________________________________
global_max_pooling1d_7 (GlobalM (None, 1)            0           conv1d_7[0][0]
__________________________________________________________________________________________________
global_max_pooling1d_8 (GlobalM (None, 1)            0           conv1d_8[0][0]
__________________________________________________________________________________________________
global_max_pooling1d_9 (GlobalM (None, 1)            0           conv1d_9[0][0]
__________________________________________________________________________________________________
global_max_pooling1d_10 (Global (None, 1)            0           conv1d_10[0][0]
__________________________________________________________________________________________________
global_max_pooling1d_11 (Global (None, 1)            0           conv1d_11[0][0]
__________________________________________________________________________________________________
global_max_pooling1d_12 (Global (None, 1)            0           conv1d_12[0][0]
__________________________________________________________________________________________________
global_max_pooling1d_13 (Global (None, 1)            0           conv1d_13[0][0]
__________________________________________________________________________________________________
global_max_pooling1d_14 (Global (None, 1)            0           conv1d_14[0][0]
__________________________________________________________________________________________________
global_max_pooling1d_15 (Global (None, 1)            0           conv1d_15[0][0]
__________________________________________________________________________________________________
global_max_pooling1d_16 (Global (None, 1)            0           conv1d_16[0][0]
__________________________________________________________________________________________________
global_max_pooling1d_17 (Global (None, 1)            0           conv1d_17[0][0]
__________________________________________________________________________________________________
global_max_pooling1d_18 (Global (None, 1)            0           conv1d_18[0][0]
__________________________________________________________________________________________________
global_max_pooling1d_19 (Global (None, 1)            0           conv1d_19[0][0]
__________________________________________________________________________________________________
global_max_pooling1d_20 (Global (None, 1)            0           conv1d_20[0][0]
__________________________________________________________________________________________________
global_max_pooling1d_21 (Global (None, 1)            0           conv1d_21[0][0]
__________________________________________________________________________________________________
global_max_pooling1d_22 (Global (None, 1)            0           conv1d_22[0][0]
__________________________________________________________________________________________________
global_max_pooling1d_23 (Global (None, 1)            0           conv1d_23[0][0]
__________________________________________________________________________________________________
global_max_pooling1d_24 (Global (None, 1)            0           conv1d_24[0][0]
__________________________________________________________________________________________________
global_max_pooling1d_25 (Global (None, 1)            0           conv1d_25[0][0]
__________________________________________________________________________________________________
global_max_pooling1d_26 (Global (None, 1)            0           conv1d_26[0][0]
__________________________________________________________________________________________________
global_max_pooling1d_27 (Global (None, 1)            0           conv1d_27[0][0]
__________________________________________________________________________________________________
global_max_pooling1d_28 (Global (None, 1)            0           conv1d_28[0][0]
__________________________________________________________________________________________________
global_max_pooling1d_29 (Global (None, 1)            0           conv1d_29[0][0]
__________________________________________________________________________________________________
global_max_pooling1d_30 (Global (None, 1)            0           conv1d_30[0][0]
__________________________________________________________________________________________________
global_max_pooling1d_31 (Global (None, 1)            0           conv1d_31[0][0]
__________________________________________________________________________________________________
global_max_pooling1d_32 (Global (None, 1)            0           conv1d_32[0][0]
__________________________________________________________________________________________________
global_max_pooling1d_33 (Global (None, 1)            0           conv1d_33[0][0]
__________________________________________________________________________________________________
global_max_pooling1d_34 (Global (None, 1)            0           conv1d_34[0][0]
__________________________________________________________________________________________________
global_max_pooling1d_35 (Global (None, 1)            0           conv1d_35[0][0]
__________________________________________________________________________________________________
global_max_pooling1d_36 (Global (None, 1)            0           conv1d_36[0][0]
__________________________________________________________________________________________________
global_max_pooling1d_37 (Global (None, 1)            0           conv1d_37[0][0]
__________________________________________________________________________________________________
global_max_pooling1d_38 (Global (None, 1)            0           conv1d_38[0][0]
__________________________________________________________________________________________________
global_max_pooling1d_39 (Global (None, 1)            0           conv1d_39[0][0]
__________________________________________________________________________________________________
global_max_pooling1d_40 (Global (None, 1)            0           conv1d_40[0][0]
__________________________________________________________________________________________________
concatenate_1 (Concatenate)     (None, 40)           0           global_max_pooling1d_1[0][0]
                                                                 global_max_pooling1d_2[0][0]
                                                                 global_max_pooling1d_3[0][0]
                                                                 global_max_pooling1d_4[0][0]
                                                                 global_max_pooling1d_5[0][0]
…
